Model: "model_1"
__________________________________________________________________________________________________
Layer (type)                    Output Shape         Param #     Connected to                     
==================================================================================================
conv2d_1_input (InputLayer)     (None, 26, 99, 1)    0                                            
__________________________________________________________________________________________________
conv2d_3_input (InputLayer)     (None, 13, 99, 1)    0                                            
__________________________________________________________________________________________________
conv2d_1 (Conv2D)               (None, 24, 97, 32)   320         conv2d_1_input[0][0]             
__________________________________________________________________________________________________
conv2d_3 (Conv2D)               (None, 11, 97, 32)   320         conv2d_3_input[0][0]             
__________________________________________________________________________________________________
lstm_1_input (InputLayer)       (None, 1, 66049)     0                                            
__________________________________________________________________________________________________
lstm_3_input (InputLayer)       (None, 1, 132096)    0                                            
__________________________________________________________________________________________________
max_pooling2d_1 (MaxPooling2D)  (None, 12, 48, 32)   0           conv2d_1[0][0]                   
__________________________________________________________________________________________________
max_pooling2d_3 (MaxPooling2D)  (None, 5, 48, 32)    0           conv2d_3[0][0]                   
__________________________________________________________________________________________________
lstm_1 (LSTM)                   (None, 1, 128)       33883136    lstm_1_input[0][0]               
__________________________________________________________________________________________________
lstm_3 (LSTM)                   (None, 1, 128)       67699200    lstm_3_input[0][0]               
__________________________________________________________________________________________________
batch_normalization_1 (BatchNor (None, 12, 48, 32)   128         max_pooling2d_1[0][0]            
__________________________________________________________________________________________________
batch_normalization_3 (BatchNor (None, 5, 48, 32)    128         max_pooling2d_3[0][0]            
__________________________________________________________________________________________________
lstm_2 (LSTM)                   (None, 1, 128)       131584      lstm_1[0][0]                     
__________________________________________________________________________________________________
lstm_4 (LSTM)                   (None, 1, 128)       131584      lstm_3[0][0]                     
__________________________________________________________________________________________________
conv2d_2 (Conv2D)               (None, 10, 46, 64)   18496       batch_normalization_1[0][0]      
__________________________________________________________________________________________________
conv2d_4 (Conv2D)               (None, 3, 46, 64)    18496       batch_normalization_3[0][0]      
__________________________________________________________________________________________________
dropout_3 (Dropout)             (None, 1, 128)       0           lstm_2[0][0]                     
__________________________________________________________________________________________________
dropout_4 (Dropout)             (None, 1, 128)       0           lstm_4[0][0]                     
__________________________________________________________________________________________________
max_pooling2d_2 (MaxPooling2D)  (None, 5, 23, 64)    0           conv2d_2[0][0]                   
__________________________________________________________________________________________________
max_pooling2d_4 (MaxPooling2D)  (None, 1, 23, 64)    0           conv2d_4[0][0]                   
__________________________________________________________________________________________________
time_distributed_1 (TimeDistrib (None, 1, 64)        8256        dropout_3[0][0]                  
__________________________________________________________________________________________________
time_distributed_5 (TimeDistrib (None, 1, 64)        8256        dropout_4[0][0]                  
__________________________________________________________________________________________________
batch_normalization_2 (BatchNor (None, 5, 23, 64)    256         max_pooling2d_2[0][0]            
__________________________________________________________________________________________________
batch_normalization_4 (BatchNor (None, 1, 23, 64)    256         max_pooling2d_4[0][0]            
__________________________________________________________________________________________________
time_distributed_2 (TimeDistrib (None, 1, 32)        2080        time_distributed_1[0][0]         
__________________________________________________________________________________________________
time_distributed_6 (TimeDistrib (None, 1, 32)        2080        time_distributed_5[0][0]         
__________________________________________________________________________________________________
dropout_1 (Dropout)             (None, 5, 23, 64)    0           batch_normalization_2[0][0]      
__________________________________________________________________________________________________
dropout_2 (Dropout)             (None, 1, 23, 64)    0           batch_normalization_4[0][0]      
__________________________________________________________________________________________________
time_distributed_3 (TimeDistrib (None, 1, 16)        528         time_distributed_2[0][0]         
__________________________________________________________________________________________________
time_distributed_7 (TimeDistrib (None, 1, 16)        528         time_distributed_6[0][0]         
__________________________________________________________________________________________________
flatten_1 (Flatten)             (None, 7360)         0           dropout_1[0][0]                  
__________________________________________________________________________________________________
flatten_2 (Flatten)             (None, 1472)         0           dropout_2[0][0]                  
__________________________________________________________________________________________________
time_distributed_4 (TimeDistrib (None, 1, 8)         136         time_distributed_3[0][0]         
__________________________________________________________________________________________________
time_distributed_8 (TimeDistrib (None, 1, 8)         136         time_distributed_7[0][0]         
__________________________________________________________________________________________________
dense_1 (Dense)                 (None, 128)          942208      flatten_1[0][0]                  
__________________________________________________________________________________________________
dense_3 (Dense)                 (None, 128)          188544      flatten_2[0][0]                  
__________________________________________________________________________________________________
flatten_3 (Flatten)             (None, 8)            0           time_distributed_4[0][0]         
__________________________________________________________________________________________________
flatten_4 (Flatten)             (None, 8)            0           time_distributed_8[0][0]         
__________________________________________________________________________________________________
dense_2 (Dense)                 (None, 8)            1032        dense_1[0][0]                    
__________________________________________________________________________________________________
dense_4 (Dense)                 (None, 8)            1032        dense_3[0][0]                    
__________________________________________________________________________________________________
dense_9 (Dense)                 (None, 8)            72          flatten_3[0][0]                  
__________________________________________________________________________________________________
dense_14 (Dense)                (None, 8)            72          flatten_4[0][0]                  
__________________________________________________________________________________________________
add_1 (Add)                     (None, 8)            0           dense_2[0][0]                    
                                                                 dense_4[0][0]                    
                                                                 dense_9[0][0]                    
                                                                 dense_14[0][0]                   
__________________________________________________________________________________________________
dense_15 (Dense)                (None, 8)            72          add_1[0][0]                      
==================================================================================================
Total params: 103,038,936
Trainable params: 103,038,552
Non-trainable params: 384
__________________________________________________________________________________________________
Осталось 2450
Осталось 2400
Осталось 2350
Осталось 2300
Осталось 2250
…
